Appending done!

Doing label encoding

Done label encoding

Doing tokenization

Done with tokenization

Building the network

Compiling the network model

Model Summary
Model: "sequential"
_________________________________________________________________
Layer (type)                 Output Shape              Param #
=================================================================
embedding (Embedding)        (None, 20, 16)            16000
_________________________________________________________________
global_average_pooling1d (Gl (None, 16)                0
_________________________________________________________________
dense (Dense)                (None, 16)                272
_________________________________________________________________
dense_1 (Dense)              (None, 16)                272
_________________________________________________________________
dense_2 (Dense)              (None, 8)                 136
=================================================================
Total params: 16,680
Trainable params: 16,680
Non-trainable params: 0
_________________________________________________________________
Epoch 1/550

1/2 [==============>...............] - ETA: 0s - loss: 2.0804 - accuracy: 0.0938
2/2 [==============================] - 0s 24ms/step - loss: 2.0801 - accuracy: 0.0909
Epoch 2/550

1/2 [==============>...............] - ETA: 0s - loss: 2.0787 - accuracy: 0.1875
…
